…
  warnings.warn("Detected call of `lr_scheduler.step()` before `optimizer.step()`. "
B1000图像的个数为: 78
B0图像的个数为: 78
T1图像切片个数为:19968
B0图像切片个数为:19968
B1000图像的个数为: 8
B0图像的个数为: 8
T1图像切片个数为:2048
B0图像切片个数为:2048
已加载数据...
initialize network with normal
initialize network with normal
loading the model from /home/chenyifei/T1_2_b0/pix2pix/monkey_brain/results/78_net_G.pth
loading the model from /home/chenyifei/T1_2_b0/pix2pix/monkey_brain/results/78_net_D.pth
---------- Networks initialized -------------
DataParallel(
  (module): UnetGenerator(
    (model): UnetSkipConnectionBlock(
      (model): Sequential(
        (0): Conv2d(1, 64, kernel_size=(4, 4), stride=(2, 2), padding=(1, 1), bias=False)
        (1): UnetSkipConnectionBlock(
          (model): Sequential(
            (0): LeakyReLU(negative_slope=0.2, inplace=True)
            (1): Conv2d(64, 128, kernel_size=(4, 4), stride=(2, 2), padding=(1, 1), bias=False)
            (2): BatchNorm2d(128, eps=1e-05, momentum=0.1, affine=True, track_running_stats=True)
            (3): UnetSkipConnectionBlock(
              (model): Sequential(
                (0): LeakyReLU(negative_slope=0.2, inplace=True)
                (1): Conv2d(128, 256, kernel_size=(4, 4), stride=(2, 2), padding=(1, 1), bias=False)
                (2): BatchNorm2d(256, eps=1e-05, momentum=0.1, affine=True, track_running_stats=True)
                (3): UnetSkipConnectionBlock(
                  (model): Sequential(
                    (0): LeakyReLU(negative_slope=0.2, inplace=True)
                    (1): Conv2d(256, 512, kernel_size=(4, 4), stride=(2, 2), padding=(1, 1), bias=False)
                    (2): BatchNorm2d(512, eps=1e-05, momentum=0.1, affine=True, track_running_stats=True)
                    (3): UnetSkipConnectionBlock(
                      (model): Sequential(
                        (0): LeakyReLU(negative_slope=0.2, inplace=True)
                        (1): Conv2d(512, 512, kernel_size=(4, 4), stride=(2, 2), padding=(1, 1), bias=False)
                        (2): BatchNorm2d(512, eps=1e-05, momentum=0.1, affine=True, track_running_stats=True)
                        (3): UnetSkipConnectionBlock(
                          (model): Sequential(
                            (0): LeakyReLU(negative_slope=0.2, inplace=True)
                            (1): Conv2d(512, 512, kernel_size=(4, 4), stride=(2, 2), padding=(1, 1), bias=False)
                            (2): BatchNorm2d(512, eps=1e-05, momentum=0.1, affine=True, track_running_stats=True)
                            (3): UnetSkipConnectionBlock(
                              (model): Sequential(
                                (0): LeakyReLU(negative_slope=0.2, inplace=True)
                                (1): Conv2d(512, 512, kernel_size=(4, 4), stride=(2, 2), padding=(1, 1), bias=False)
                                (2): BatchNorm2d(512, eps=1e-05, momentum=0.1, affine=True, track_running_stats=True)
                                (3): UnetSkipConnectionBlock(
                                  (model): Sequential(
                                    (0): LeakyReLU(negative_slope=0.2, inplace=True)
                                    (1): Conv2d(512, 512, kernel_size=(4, 4), stride=(2, 2), padding=(1, 1), bias=False)
                                    (2): ReLU(inplace=True)
                                    (3): ConvTranspose2d(512, 512, kernel_size=(4, 4), stride=(2, 2), padding=(1, 1), bias=False)
                                    (4): BatchNorm2d(512, eps=1e-05, momentum=0.1, affine=True, track_running_stats=True)
                                  )
                                )
                                (4): ReLU(inplace=True)
                                (5): ConvTranspose2d(1024, 512, kernel_size=(4, 4), stride=(2, 2), padding=(1, 1), bias=False)
                                (6): BatchNorm2d(512, eps=1e-05, momentum=0.1, affine=True, track_running_stats=True)
                              )
                            )
                            (4): ReLU(inplace=True)
                            (5): ConvTranspose2d(1024, 512, kernel_size=(4, 4), stride=(2, 2), padding=(1, 1), bias=False)
                            (6): BatchNorm2d(512, eps=1e-05, momentum=0.1, affine=True, track_running_stats=True)
                          )
                        )
                        (4): ReLU(inplace=True)
                        (5): ConvTranspose2d(1024, 512, kernel_size=(4, 4), stride=(2, 2), padding=(1, 1), bias=False)
                        (6): BatchNorm2d(512, eps=1e-05, momentum=0.1, affine=True, track_running_stats=True)
                      )
                    )
                    (4): ReLU(inplace=True)
                    (5): ConvTranspose2d(1024, 256, kernel_size=(4, 4), stride=(2, 2), padding=(1, 1), bias=False)
                    (6): BatchNorm2d(256, eps=1e-05, momentum=0.1, affine=True, track_running_stats=True)
                  )
                )
                (4): ReLU(inplace=True)
                (5): ConvTranspose2d(512, 128, kernel_size=(4, 4), stride=(2, 2), padding=(1, 1), bias=False)
                (6): BatchNorm2d(128, eps=1e-05, momentum=0.1, affine=True, track_running_stats=True)
              )
            )
            (4): ReLU(inplace=True)
            (5): ConvTranspose2d(256, 64, kernel_size=(4, 4), stride=(2, 2), padding=(1, 1), bias=False)
            (6): BatchNorm2d(64, eps=1e-05, momentum=0.1, affine=True, track_running_stats=True)
          )
        )
        (2): ReLU(inplace=True)
        (3): ConvTranspose2d(128, 1, kernel_size=(4, 4), stride=(2, 2), padding=(1, 1))
        (4): Tanh()
      )
    )
  )
)
[Network G] Total number of parameters : 54.408 M
DataParallel(
  (module): NLayerDiscriminator(
    (model): Sequential(
      (0): Conv2d(2, 64, kernel_size=(4, 4), stride=(2, 2), padding=(1, 1))
      (1): LeakyReLU(negative_slope=0.2, inplace=True)
      (2): Conv2d(64, 128, kernel_size=(4, 4), stride=(2, 2), padding=(1, 1), bias=False)
      (3): BatchNorm2d(128, eps=1e-05, momentum=0.1, affine=True, track_running_stats=True)
      (4): LeakyReLU(negative_slope=0.2, inplace=True)
      (5): Conv2d(128, 256, kernel_size=(4, 4), stride=(2, 2), padding=(1, 1), bias=False)
      (6): BatchNorm2d(256, eps=1e-05, momentum=0.1, affine=True, track_running_stats=True)
      (7): LeakyReLU(negative_slope=0.2, inplace=True)
      (8): Conv2d(256, 512, kernel_size=(4, 4), stride=(1, 1), padding=(1, 1), bias=False)
      (9): BatchNorm2d(512, eps=1e-05, momentum=0.1, affine=True, track_running_stats=True)
      (10): LeakyReLU(negative_slope=0.2, inplace=True)
      (11): Conv2d(512, 1, kernel_size=(4, 4), stride=(1, 1), padding=(1, 1))
    )
  )
)
[Network D] Total number of parameters : 2.765 M
-----------------------------------------------
learning rate 0.0002000 -> 0.0002000
epoch:79, data:022125_bB0, psnr is 38.88442363853551, ssim is 0.9222080794151645, mse is 462.30741180555555, mi is 1.4193156129808442 
epoch:79, data:022126_bB0, psnr is 38.62579300025089, ssim is 0.9108458088597344, mse is 933.3775, mi is 1.4102465745496542 
…
